result/model_weights.pth (torch, 866059 bytes, 519 tensors)

encoder2_1.conv1.weight f4 [4, 2, 3, 3]
0	0xbeb20da0	-0.3477602
1	0x3a353d33	0.00069137214
2	0xbe729db3	-0.2369297
3	0xbe8baf58	-0.27282214
4	0xbc0468fd	-0.008081672
5	0x3d182c49	0.03715161
6	0xbe7538a8	-0.23947394
7	0x3d7544e4	0.059880152
8	0xbe3ab856	-0.18234381
9	0x3e57889e	0.21048209
10	0x3e2c1b93	0.16807394
11	0xbd4f49ee	-0.050607614
12	0xbe272de8	-0.16326106
13	0x3d5d3469	0.05400506
14	0x3cefae00	0.029257774
15	0x3dfff266	0.12497406
16	0xbdf66e9d	-0.120328166
17	0x3d551dd9	0.052030418
18	0xbe21f3c5	-0.15815647
19	0x3e9b5b3b	0.3034304
20	0x3e548972	0.20755556
21	0x3e131070	0.14361739
22	0x3e50756d	0.20357294
23	0x3e352c94	0.17692786
24	0xbe1aa462	-0.1510177
25	0xbdc15837	-0.09440654
26	0x3d9e65af	0.07734238
27	0xbe2f575a	-0.17123166
28	0x3e8182de	0.25295156
29	0x3d516424	0.051120892
30	0xbdc374ad	-0.095437385
31	0x3dc8810a	0.09790237
32	0x3e443dbe	0.19164178
33	0x3c71ce40	0.0147586465
34	0x3dfe15d3	0.124065064
35	0x3e4ac22d	0.19800635
36	0x3dbdef2d	0.09274135
37	0x3ca6a029	0.020340042
38	0x3e400ad2	0.18754128
39	0x3e1f5926	0.15561351
40	0x3de571f7	0.11203378
41	0x3d202e65	0.039106745
42	0x3e866fbe	0.26257128
43	0x3d290975	0.041268785
44	0xbe070ff9	-0.13189687
45	0x3e258afe	0.16166303
46	0x3e738a3e	0.23783204
47	0x3e264947	0.1623889
48	0x3dff1cf3	0.124566935
49	0x3de6a8cf	0.112626664
50	0x3e1bad5c	0.1520285
51	0xbd3564eb	-0.044285696
52	0xbdeb6b1f	-0.11495041
53	0xbe0484ed	-0.12941332
54	0xbe63065c	-0.22170395
55	0x3c32d203	0.0109143285
56	0xbe0ad644	-0.13558298
57	0xbba25ad9	-0.0049546775
58	0xbe0136a0	-0.12618494
59	0xbc228e95	-0.0099216895
60	0x3df672bb	0.12033602
61	0x3c03118b	0.007999788
62	0xbc5f9822	-0.013647111
63	0x3d56f31f	0.052477952
64	0xbe7ea65b	-0.24868147
65	0x3e4f4c23	0.20243888
66	0x3e0aab6b	0.13541953
67	0x3dbfd470	0.09366691
68	0xbe56c321	-0.20972873
69	0x3db3152f	0.08744275
70	0xbdac5324	-0.08414295
71	0x3e13d45c	0.14436477

encoder2_1.conv1.bias f4 [4]
0	0x3e4d5618	0.20052373
1	0xbccfd9e3	-0.025372451
2	0x3e7eba5d	0.2487578
3	0x3e838109	0.25684384

encoder2_1.conv2.weight f4 [4, 4, 3, 3]
0	0x3ddd07aa	0.107924774
1	0xbd807904	-0.06273082
2	0xbe1bc1dd	-0.15210672
3	0x3ba2e24a	0.0049708234
4	0xbe0b79cf	-0.13620685
5	0xbe1df36d	-0.15424891
6	0x3e85618a	0.2605098
7	0x3e5239d7	0.20529877
8	0xbdd8f535	-0.105936445
9	0xbc946e19	-0.018118905
10	0x3e53dd2f	0.20689844
11	0x3bd4ac2a	0.00649025
12	0xbbf0ae90	-0.007345028
13	0x3e240849	0.16018786
14	0x3d9b337a	0.07578178
15	0x3e0dbeb3	0.13842277
16	0xbe5ee6a3	-0.21767668
17	0xbe2be7e0	-0.16787672
18	0xbdd8f43f	-0.10593461
19	0x3e92d5ab	0.2867864
20	0x3ef7ef6e	0.48424858
21	0x3d31b2ae	0.043383293
22	0x3e8449e9	0.2583764
23	0x3e878cff	0.2647476
24	0xbd50da02	-0.05098916
25	0x3df9e36f	0.12201583
26	0xbc8d2a6e	-0.017232146
27	0xbdc41ba9	-0.09575588
28	0xbd2f27e2	-0.042762645
29	0xbe01061b	-0.12599985
30	0xbe06816e	-0.13135311
31	0xbd858935	-0.06520311
32	0xbe038dd5	-0.12847073
33	0xbda02fcb	-0.07821616
34	0xb8d2da02	-0.000100541874
35	0x3de613d6	0.11234252
36	0xbe70610f	-0.23474525
37	0xbe7aa9c7	-0.24478827
38	0xbdcf550c	-0.10123643
39	0xbe55a57e	-0.20863912
40	0xbde19a2d	-0.11015735
41	0xbdadd107	-0.084871344
42	0xbd4a8016	-0.04943856
43	0x3c867ce9	0.016416984
44	0xbc504d2d	-0.012713713
45	0x3cf8be98	0.03036432
46	0xbd9d4c38	-0.07680553
47	0x3d05a862	0.032631285
48	0xbcee3aae	-0.029080715
49	0xbc04a897	-0.008096836
50	0xbd833f61	-0.06408573
51	0x3e1ef73b	0.15523998
52	0xbc867931	-0.01641521
53	0xbd1e8941	-0.038705114
54	0x3ebbaa00	0.36653137
55	0x3dab8916	0.083757564
56	0xbc0d3245	-0.008617942
57	0x3eaa7bea	0.33297664
58	0xbccb1b36	-0.024793249
59	0x3d93736f	0.071997516
60	0x3e6f703c	0.23382658
61	0xbd93f941	-0.07225276
62	0xbdc2beef	-0.09509074
63	0xbe1c8f3a	-0.15289012
64	0xbd259d2f	-0.040433105
65	0xbe2a5bc4	-0.16636568
66	0xbd566584	-0.052342907
67	0x3e2ec438	0.17067039
68	0x3e3bace2	0.18327668
69	0xbd483b4d	-0.04888468
70	0xbd072086	-0.03299
71	0xbd3bdeba	-0.045866705
72	0x3e8024ec	0.2502817
73	0xbd8f002b	-0.06982454
74	0xbe172ac7	-0.14762412
75	0x3db74509	0.08948714
76	0xbd98393e	-0.07432793
77	0xbe01724b	-0.12641256
78	0x3e0ffdab	0.1406161
79	0x3d810462	0.06299664
80	0x3e9c6d36	0.3055207
81	0xbe6c9a0b	-0.23105638
82	0x3e143eeb	0.14477126
83	0x3ebed981	0.37275317
84	0xbd3b84a1	-0.04578078
85	0x3d9606a0	0.07325482
86	0xbe13d7de	-0.14437816
87	0xbe62d85b	-0.22152846
88	0xbd9dc691	-0.07703889
89	0xbd18c5f7	-0.03729817
90	0xbdfb7a25	-0.122791566
91	0xbd31a3df	-0.04336917
92	0x3d86bee9	0.06579382
93	0x3d4f04d5	0.050541718
94	0xbe044945	-0.12918575
95	0xbd14a24c	-0.03628759
96	0x3aa3cca5	0.0012496902
97	0xbd6604cb	-0.056156915
98	0xbe4d2984	-0.20035368
99	0x3da01063	0.078156255
100	0xbe0d3c5e	-0.1379256
101	0xbeb927c7	-0.3616316
102	0x3d6e7471	0.058216516
103	0xbceb304f	-0.028709559
104	0x3d17017f	0.03686666
105	0xbcea876b	-0.028629025
106	0x3e6cd86c	0.23129433
107	0x3e23bc10	0.15989709
108	0xbcdcae4d	-0.026938582
109	0x3cbeb689	0.023280399
110	0xbe38c13e	-0.18042466
111	0xbd5b5dcd	-0.053556252
112	0xbdb7f8d2	-0.089830056
113	0xbd6eab45	-0.058268804
114	0xbe0d1ba6	-0.13780078
115	0x3df7350a	0.12070663
116	0x3bc772b9	0.006086674
117	0x3e919157	0.28431198
118	0x3e492a6a	0.19645086
119	0xbdb41612	-0.08793272
120	0x3dc96bc3	0.09835007
121	0xbd03cc76	-0.03217741
122	0x3e04d1ae	0.12970611
123	0x3d9b5be0	0.07585883
124	0x3e4c7022	0.1996465
125	0xbc05eebe	-0.008174596
126	0xb9e809b2	-0.00044257712
127	0xbd501fde	-0.05081164
128	0x3bd03e08	0.006355051
129	0x3e8b456c	0.27201402
130	0x3e1f219a	0.15540162
131	0x3dd7c1d7	0.10535019
132	0x3e802b12	0.2503286
133	0x3dd5979d	0.104293086
134	0x3ccaaf99	0.024741935
135	0x3c656180	0.014000297
136	0xbd21fab0	-0.039545715
137	0x3e59039d	0.21192785
138	0x3e0b5664	0.13607174
139	0xbc30537b	-0.010762091
140	0xbd965fd1	-0.07342494
141	0xbc8ee52f	-0.017443268
142	0xbd34577c	-0.044028744
143	0x3b05b356	0.0020401082

encoder2_1.conv2.bias f4 [4]
0	0xbde4f2a9	-0.11179096
1	0xbe06d72f	-0.13168024
2	0x3e03b5a3	0.12862258
3	0x3e0a7de9	0.13524593

encoder2_1.conv3.weight f4 [4, 4, 3, 3]
0	0xbe846661	-0.2585936
1	0x3eb2ac4b	0.34897074
2	0x3ef52e65	0.4788696
3	0xbe1504f4	-0.1455267
4	0xba84994e	-0.0010116489
5	0x3e3e8513	0.18605451
6	0x3d92ca78	0.07167524
7	0x3dc404c7	0.09571224
8	0x3db25573	0.087077044
9	0xbf0b0acc	-0.5431335
10	0x3e33a547	0.17543517
11	0x3f00955a	0.5022789
12	0xbebc8b09	-0.36824825
13	0x3d8a7bad	0.067618705
14	0x3ec274f6	0.3797986
15	0xbe5b613c	-0.2142381
16	0x3cfba418	0.030717894
17	0x3e552dc1	0.20818235
18	0xbe92bf52	-0.2866159
19	0xbdade9cd	-0.084918596
20	0xbd70cd52	-0.05878956
21	0x3badb23a	0.0053007873
22	0xbde3f10e	-0.11129962
23	0x3d50d1ad	0.050981212
24	0x3da1aace	0.078939065
25	0xbc992cff	-0.018698214
26	0xbe8d3ad5	-0.27583948
27	0xbe958d5e	-0.29209417
28	0x3d2b033d	0.041751135
29	0xbc70dfc7	-0.01470179
30	0xbe3f3259	-0.1867155
31	0xbc8e3fd5	-0.017364422
32	0x3e1d19b2	0.15341833
33	0xbce3ca11	-0.027806314
34	0x3cae450b	0.021273157
35	0x3e45e258	0.19324625
36	0xbd11e2b7	-0.035616603
37	0xbd44cf4d	-0.04804926
38	0xbe51d11c	-0.20489925
39	0xbc22fc7a	-0.00994789
40	0x3cae7523	0.02129609
41	0x3c27ada6	0.010234272
42	0x3d06da3e	0.032922976
43	0xbe0d21b7	-0.13782392
44	0xbe5eebd5	-0.2176965
45	0xbd602705	-0.054724712
46	0x3dadf1cc	0.08493385
47	0x3d1243e8	0.03570929
48	0x3c8de1ce	0.017319586
49	0x3b695980	0.0035606325
50	0xbd32630c	-0.04355149
51	0x3cd893ff	0.026437758
52	0x3e16c2e7	0.14722787
53	0xbda0e28c	-0.078557104
54	0x3db7479a	0.08949204
55	0xbe0e1645	-0.13875683
56	0xbd5c7635	-0.05382367
57	0x3ccd8e78	0.025092348
58	0xbe2b5293	-0.16730718
59	0xba86e044	-0.0010290225
60	0xbe8c5a40	-0.27412605
61	0xbce1573a	-0.027507413
62	0xbdbda8e5	-0.0926073
63	0xbe926f07	-0.28600332
64	0xbe6ef84b	-0.23336904
65	0x3d3ad030	0.0456087
66	0x3c9caf18	0.01912646
67	0xbdb65ae4	-0.08904055
68	0xbe6e2351	-0.2325566
69	0xbe21e6dc	-0.15810722
70	0xbd09cac0	-0.033640623
71	0xbde85ddf	-0.113460295
72	0xbe60f7be	-0.21969506
73	0xbe6a97b4	-0.22909433
74	0xbe8349f2	-0.25642353
75	0xbe7c9c2b	-0.24668948
76	0xbe8edc13	-0.27902278
77	0xbe846efe	-0.2586593
78	0xbd3f12cb	-0.04664878
79	0xbe6377c2	-0.22213653
80	0xbe21630f	-0.15760444
81	0xbda8c3f1	-0.08240498
82	0x3d76704c	0.06016569
83	0xbd6ef202	-0.058336265
84	0xbebee267	-0.37282106
85	0xbe6124df	-0.21986721
86	0xbe304c39	-0.17216577
87	0x3b96f48c	0.004606789
88	0xbe0e9f6e	-0.13928005
89	0x3db349fc	0.08754346
90	0xbbac21c2	-0.0052530477
91	0x3df2f0dc	0.118623465
92	0x3dad05cd	0.08448372
93	0x3ce3f147	0.027825011
94	0xbdcfd9f9	-0.10148997
95	0xbdb16d2b	-0.086634
96	0xbdda7c15	-0.10668198
97	0xbe685589	-0.22688879
98	0xbe60640d	-0.21913166
99	0xbe0ca381	-0.13734247
100	0xbe03942e	-0.12849495
101	0x3d0187e9	0.031623755
102	0x3d208841	0.03919244
103	0x3cc9dc3a	0.024641145
104	0xbb54165d	-0.0032361962
105	0x3e1dc1a0	0.15405893
106	0x3dbf5d3a	0.093439534
107	0x3c95f48b	0.018305084
108	0xbc0c35de	-0.008557765
109	0xbe532c8d	-0.20622464
110	0x3ddf5bf7	0.10906213
111	0x3da79569	0.081827946
112	0xbd84ac35	-0.064781584
113	0x3e07b3b6	0.13252148
114	0x3d9ef7c5	0.07762102
115	0x3de4d09b	0.11172601
116	0x3ddd51c9	0.10806615
117	0x3cfb4c13	0.030675923
118	0xbe6093cb	-0.21931379
119	0xbd8dabb7	-0.06917518
120	0xbe1ef331	-0.15522458
121	0xbc53153b	-0.01288348
122	0xbe947896	-0.2899825
123	0xbe1822ff	-0.148571
124	0xbdee47ff	-0.11634826
125	0xbd6ee6ab	-0.05832545
126	0x3d5c31a1	0.053758267
127	0x3da9b032	0.0828556
128	0xbe3657c2	-0.17806914
129	0xbdb53d8e	-0.08849631
130	0xba01a311	-0.0004945258
131	0xbdbe72b9	-0.09299225
132	0xbc568f58	-0.013095699
133	0x3db8e6ce	0.090283975
134	0xbe80b673	-0.25139198
135	0xbd67b029	-0.056564484
136	0x3d12015f	0.03564584
137	0xbe56b512	-0.2096751
138	0xbcf73ab0	-0.030179352
139	0x3c713792	0.014722722
140	0x3d4a63d3	0.049411606
141	0xbe283641	-0.16426946
142	0xbd86e9e6	-0.06587581
143	0xbd95e388	-0.07318789

encoder2_1.conv3.bias f4 [4]
0	0x3eb36dfd	0.35044852
1	0xbb809971	-0.0039245416
2	0xbd823218	-0.06357211
3	0xbc7ac9b1	-0.015306876

encoder2_1.conv4.weight f4 [4, 4, 3, 3]
0	0x3e0de36a	0.13856283
1	0x3f7c001d	0.9843767
2	0x3f415172	0.755149
3	0xbdf4bd3a	-0.119501546
4	0x3e47734a	0.19477573
5	0xbd8144bf	-0.063119404
6	0xbe8ca51b	-0.27469715
7	0xbcb15bfe	-0.02165031
8	0xbe1d9257	-0.15387855
9	0xbdf8b779	-0.1214437
10	0xbe34dc30	-0.1766212
11	0xbda8fd51	-0.08251441
12	0x3c9093e1	0.01764864
13	0xbd64ac32	-0.05582828
14	0xbe0608ba	-0.13089266
15	0x3d0dd7c1	0.034629587
16	0xbd9b9d70	-0.07598388
17	0x3be7f8a3	0.0070792004
18	0xbd4c1ced	-0.049832273
19	0xbc8fdfaf	-0.017562715
20	0xbe207d73	-0.15672855
21	0x3d8eaafb	0.06966206
22	0xbd9408af	-0.07228219
23	0xbc1fcae2	-0.009752961
24	0xbd94d5f9	-0.072673745
25	0x3cfa54e7	0.030558063
26	0xbdf21670	-0.11820686
27	0x3daf3c70	0.085564494
28	0xbe2c08ac	-0.16800183
29	0xbe35630a	-0.17713562
30	0xbcf5cd4b	-0.030005118
31	0x3d93d12b	0.0721763
32	0x3dae1d74	0.085017115
33	0x3dde91e8	0.10867673
34	0xbe075c38	-0.13218772
35	0x3c5386ff	0.012910604
36	0x3db5cfdf	0.08877539
37	0x3e4f0bc1	0.20219328
38	0x3dbfe3f1	0.09369648
39	0x3cdd2d8f	0.026999263
40	0xbc42d5f7	-0.0118918335
41	0x3e02c77e	0.12771413
42	0xbde98ab7	-0.11403411
43	0xbe3ee560	-0.18642187
44	0x3da59705	0.08085445
45	0xbd945ab2	-0.07243861
46	0xbdbf5f6c	-0.09344372
47	0x3d683c25	0.056697983
48	0xbd90431b	-0.07044049
49	0xbdbfc68a	-0.0936404
50	0x3e340bad	0.17582579
51	0x3db4d281	0.08829213
52	0xbe1301d4	-0.14356166
53	0xbb95d8f5	-0.0045729824
54	0xbdd5d8f5	-0.10441772
55	0x3dea03fa	0.1142654
56	0xbdf49c38	-0.11943859
57	0x3dd347b1	0.103164084
58	0x3d3e27a8	0.046424538
59	0x3d901524	0.07035282
60	0xbd846e46	-0.064663455
61	0xbe0ac9ad	-0.13553496
62	0xbccd289e	-0.025043782
63	0x3d411deb	0.047147673
64	0x3d5a2852	0.05326111
65	0xbd9a5b2b	-0.0753692
66	0x3ce12aa9	0.027486162
67	0x3e335b7b	0.17515366
68	0x3d059fc4	0.032623067
69	0xbe1021a4	-0.14075333
70	0xbda26e0e	-0.079311475
71	0x3c6edaea	0.01457856
72	0xbddbab34	-0.10726014
73	0x3ea7926d	0.32728902
74	0x3eaf9408	0.34292626
75	0xbe91455f	-0.28373238
76	0xbd1ac3fb	-0.037784558
77	0x3d3e404f	0.04644805
78	0xbdc7db98	-0.09758681
79	0xbe367540	-0.17818165
80	0xbea06bd3	-0.31332263
81	0x3d91c43c	0.07117507
82	0xbe01ae80	-0.12664223
83	0xbc205de8	-0.009788014
84	0x3d096016	0.0335389
85	0x3d851b19	0.06499309
86	0xbd314841	-0.043281797
87	0xbd31d103	-0.04341222
88	0x3c680884	0.0141621865
89	0xbe1e2450	-0.1544354
90	0xbdda2317	-0.10651224
91	0xbe49c46e	-0.19703838
92	0xbe4edcea	-0.2020146
93	0xbe1a52c8	-0.15070641
94	0xbe339e1a	-0.1754078
95	0xbe7afcf5	-0.24510558
96	0x3e34f95f	0.17673253
97	0x3d4d6df8	0.050153702
98	0xbe5e1b81	-0.2169018
99	0x3ccc6c4d	0.024953986
100	0xbd00b297	-0.031420317
101	0xbdff267b	-0.124585114
102	0x3ca114bd	0.01966321
103	0xbea061f3	-0.3132473
104	0x3d2f7bbf	0.042842623
105	0xbe0eb247	-0.13935195
106	0xbe18e551	-0.14931227
107	0x3e1c0876	0.15237603
108	0x3e1aa2eb	0.15101211
109	0xbd0dd884	-0.034630314
110	0xbd9037e1	-0.07041908
111	0xbda81df6	-0.082088396
112	0xbce49f0e	-0.027907874
113	0x3cc6a97b	0.024250736
114	0xbc289447	-0.010289258
115	0x3bcab5cb	0.006186222
116	0x3d40048b	0.046879333
117	0x3c6c52cf	0.01442404
118	0x3d636614	0.05551727
119	0x3dcce358	0.100043
120	0x3e0441e4	0.1291576
121	0x3e15fce3	0.1464725
122	0xbdaf0725	-0.085462846
123	0x3e00a85b	0.12564223
124	0x3db6663b	0.08906218
125	0x3df16581	0.117869385
126	0xbe418c2e	-0.1890113
127	0xbe4c7523	-0.19966559
128	0x3cb68104	0.022278316
129	0xbdbdc90a	-0.09266861
130	0xbe468afe	-0.19388959
131	0x3cb9dba0	0.022687733
132	0xbd170544	-0.036870256
133	0x3dc610e5	0.09671191
134	0xbc205093	-0.009784835
135	0x3d84d688	0.06486231
136	0x3ddcd7de	0.10783361
137	0xbd61e7b6	-0.055152617
138	0xbac742e0	-0.0015202425
139	0x3d8bd074	0.06826869
140	0x3cdec5ff	0.027194021
141	0x3d10c180	0.035340786
142	0xbe132898	-0.14370954
143	0xbc861166	-0.016365718

encoder2_1.conv4.bias f4 [4]
0	0x3d022b32	0.031779476
1	0x3e23d825	0.16000421
2	0xbe0a46b3	-0.13503532
3	0x3e1f17b0	0.1553638

encoder2_1.upsample.weight f4 [4, 2, 1, 1]
0	0x3e1b500f	0.15167259
1	0x3f3fdb19	0.7494369
2	0x3e828a6f	0.2549624
3	0xbecafb6c	-0.39644945
4	0xbe70a1cc	-0.2349922
5	0x3eea9e12	0.45823723
6	0xbd754c58	-0.05988726
7	0x3eea42c1	0.45754054

encoder2_1.upsample.bias f4 [4]
0	0x3eb4e807	0.35333273
1	0xbe4c72c6	-0.19965658
2	0x3e71962f	0.23592447
3	0xbf0f9cda	-0.5609871

encoder2_1.bn1.weight f4 [4]
0	0x3f4f2878	0.80921125
1	0x3fae20ba	1.3603737
2	0x3f55b7e0	0.83483696
3	0x3f8bdbe4	1.092648

encoder2_1.bn1.bias f4 [4]
0	0xbd199792	-0.037498064
1	0x3e963ecb	0.29344782
2	0xbdf41325	-0.11917714
3	0xbe44266f	-0.19155286

encoder2_1.bn1.running_mean f4 [4]
0	0x3f78dc17	0.9721083
1	0x3e5df3c2	0.21675017
2	0xbbdde247	-0.006771359
3	0x3e82aa98	0.25520778

encoder2_1.bn1.running_var f4 [4]
0	0x3d86e4da	0.06586619
1	0x3d159b34	0.036524966
2	0x3cbfa2f6	0.023393136
3	0x3d36c54f	0.044621762

encoder2_1.bn2.weight f4 [4]
0	0x3f9f9af5	1.2469164
1	0x3f4c47f4	0.7979729
2	0x3f968ed9	1.1762344
3	0x3f71e01a	0.94482577

encoder2_1.bn2.bias f4 [4]
0	0x3da3f148	0.08005005
1	0xbdb88bca	-0.09011038
2	0x3db1542d	0.086586334
3	0xbe07a986	-0.13248262

encoder2_1.bn2.running_mean f4 [4]
0	0x3fae9231	1.3638364
1	0x3f8db748	1.1071558
2	0xbdd8f69b	-0.10593911
3	0x3f069afd	0.52580243

encoder2_1.bn2.running_var f4 [4]
0	0x4058b8d0	3.38628
1	0x3fa310fd	1.273956
2	0x3f07b813	0.5301525
3	0x3ed63b56	0.41842145

encoder2_2.conv1.weight f4 [4, 2, 3, 3]
0	0x3d6a26e3	0.05716599
1	0xbdc08b04	-0.09401515
2	0xbabd2ba2	-0.0014432559
3	0xbe11687d	-0.14200015
4	0xbddc217a	-0.10748573
5	0x3db5a8c6	0.088700816
6	0xbc937321	-0.017999234
7	0x3e396828	0.18106139
8	0xbe3e427c	-0.1858005
9	0xbcf482dc	-0.029847555
10	0xbe51e7d4	-0.20498592
11	0xbe00abdf	-0.12565564
12	0xbe48ffc7	-0.19628821
13	0x3d997dcb	0.07494696
14	0x3dee7c30	0.11644781
15	0xbe324289	-0.17408194
16	0xbe6271a7	-0.22113667
17	0xbdcdcc91	-0.100487836
18	0xbf013804	-0.504761
19	0xbd617caa	-0.05505053
20	0x3e051d7d	0.1299953
21	0xbe1ab804	-0.15109259
22	0xbd0b1b80	-0.033961773
23	0x3e74a2dd	0.23890252
24	0x3e107503	0.14107136
25	0x3f0abad7	0.54191345
26	0x3f1b1c6c	0.60590243
27	0xbea84e15	-0.32872072
28	0x3ce7049c	0.02820044
29	0x3de45977	0.111498766
30	0xbe36fb58	-0.17869318
31	0xbe8e3a7f	-0.27779004
32	0xbddd2c4c	-0.107994646
33	0xbe4c6574	-0.19960576
34	0xbcf28804	-0.029605873
35	0xbde5181f	-0.11186241
36	0x3e791b5f	0.24326847
37	0x3e1f9812	0.15585354
38	0xbda905ac	-0.08253035
39	0x3e1efcc1	0.15526105
40	0xbdb81af4	-0.08989516
41	0x3dfdf53c	0.1240029
42	0x3dc43149	0.09579713
43	0x3dd2119e	0.102572665
44	0xbda4f840	-0.080551624
45	0x3cf696ff	0.030101297
46	0xbe662fb1	-0.2247913
47	0xbe2855b8	-0.16438949
48	0x3daef8b7	0.08543532
49	0xbd5337b4	-0.051566795
50	0x3c803c02	0.015653614
51	0xbd4fc9bf	-0.05072951
52	0xbdbab33a	-0.09116216
53	0x3d9bc197	0.07605284
54	0x3eb4438f	0.35207793
55	0x3df648c6	0.12025599
56	0xbd3a93cf	-0.045551118
57	0x3eb76085	0.35815826
58	0x3dfa72b6	0.122289106
59	0xbb0b7c2c	-0.002128373
60	0x3e5b11b4	0.21393472
61	0x3e01f8e8	0.12692606
62	0x3da05a5a	0.07829733
63	0xbe76e71b	-0.24111597
64	0xbe334126	-0.17505321
65	0x3c8cb48d	0.017175937
66	0x3debc979	0.11513037
67	0xbe5a29d4	-0.21305019
68	0x3d85f7c0	0.06541395
69	0x3e2724b4	0.16322595
70	0x3e2c9ca5	0.1685663
71	0xbd9d6928	-0.076860726

encoder2_2.conv1.bias f4 [4]
0	0xbe478dc6	-0.19487676
1	0x3ebcc6b2	0.36870342
2	0xba929f14	-0.0011186325
3	0x3c06991e	0.008215217

encoder2_2.conv2.weight f4 [4, 4, 3, 3]
0	0xbdb21038	-0.086945
1	0x3de6fae9	0.11278326
2	0x3e289cdc	0.16466087
3	0xbe03b9d4	-0.12863857
4	0xbd05c51c	-0.03265868
5	0xbdd17060	-0.10226512
6	0xbe13544c	-0.14387625
7	0x3dc74a59	0.097309776
8	0x3e0d3fb0	0.13793826
9	0xbd47f234	-0.048814967
10	0xbc55d275	-0.013050665
11	0xbde430c7	-0.11142116
12	0xbe880363	-0.26565084
13	0xbda3e474	-0.08002558
14	0xbe6f703e	-0.23382661
15	0xbe88c15c	-0.26710021
16	0xbe37340a	-0.17890945
17	0xbc936e75	-0.017997006
18	0x3df036cf	0.11729204
19	0xbe356c40	-0.17717075
20	0x3c52b51b	0.012860562
21	0x3cfd8777	0.030948384
22	0xbea8ed5e	-0.32993597
23	0xbe5308c5	-0.20608814
24	0xbd3a7854	-0.04552491
25	0xbe563125	-0.20917185
26	0x3d267569	0.040639315
27	0x3e992e16	0.29917973
28	0x3c750992	0.014955895
29	0x3dbdfdbf	0.09276914
30	0x3d4a87e9	0.04944602
31	0xbe764a50	-0.24051785
32	0xbe6b7df0	-0.2299726
33	0x3dc4a320	0.09601426
34	0xbde3bc23	-0.111198686
35	0xbd7c0970	-0.061532438
36	0x3dd07a07	0.10179525
37	0xbe036047	-0.12829696
38	0xbe12e4ec	-0.1434514
39	0x3dd84ddc	0.105617255
40	0x3d4d33fa	0.050098397
41	0xbe1655af	-0.14681123
42	0xbdd1eef2	-0.10250653
43	0xbd7a17d7	-0.06105789
44	0xbd8c4208	-0.06848532
45	0x3e4d3587	0.2003995
46	0x3eacfbc6	0.33785838
47	0x3e861b69	0.26192787
48	0xbe0102b1	-0.12598683
49	0x3d81cd4d	0.06337986
50	0xbd488ad6	-0.04896053
51	0xbd7074cf	-0.058705147
52	0xbee96540	-0.4558506
53	0xbe6914ed	-0.22761889
54	0xbe1bcdb6	-0.15215191
55	0x3d62901d	0.05531322
56	0x3decd66d	0.11564336
57	0xbe50e09c	-0.20398182
58	0x3e181787	0.14852725
59	0x3d8726c0	0.06599188
60	0xbe58d6cf	-0.21175693
61	0x3c8f22a4	0.017472573
62	0xbdbdac33	-0.0926136
63	0xbe47dddf	-0.19518231
64	0x3e96868f	0.29399535
65	0x3ebdad2e	0.37046188
66	0xbec8c609	-0.3921359
67	0x3e563d53	0.20921831
68	0x3def85f8	0.116954744
69	0xbe6ac4f1	-0.2292669
70	0xbe8fabc3	-0.2806073
71	0xbe7d9864	-0.24765164
72	0x3e4b5429	0.19856323
73	0xbe0af70e	-0.13570806
74	0x3e125bff	0.14292906
75	0x3d9d3eb7	0.076779775
76	0xbd50a080	-0.050934315
77	0x3cdd4596	0.02701072
78	0x3d5187d9	0.051154945
79	0x3e1d1cb8	0.15342987
80	0xbd315760	-0.043296218
81	0x3eb4707e	0.35242075
82	0x3e317ed9	0.17333545
83	0xbcc6b8a9	-0.024257975
84	0x3ea4e310	0.32204485
85	0x3e26fa36	0.16306385
86	0xbe9db7f9	-0.30804422
87	0x3e15beed	0.14623614
88	0x3c890efb	0.016730776
89	0xbdd86733	-0.10566559
90	0x3ecb568e	0.39714473
91	0x3e8053c5	0.2506391
92	0xbe56e89f	-0.20987175
93	0x3e87cda3	0.26524076
94	0x3eb7ca99	0.35896757
95	0x3ca8f370	0.020623893
96	0x3e902f44	0.2816106
97	0x3e4f329a	0.20234147
98	0x3dc1a4af	0.09455239
99	0x3d82d02f	0.06387364
100	0x3e517531	0.20454861
101	0xbe5cd12b	-0.21564166
102	0x3d7b3576	0.06133028
103	0x3ed5e8cf	0.4177918
104	0x3d6af772	0.05736489
105	0x3e47997d	0.19492145
106	0x3e1cff6f	0.15331815
107	0x3cff9778	0.031200156
108	0x3d4911d4	0.049089268
109	0xbbd620c9	-0.00653467
110	0x3c15ca16	0.009142419
111	0xbe284b7f	-0.1643505
112	0xbda35578	-0.07975286
113	0xbda77fa8	-0.08178645
114	0xbdbbb3a0	-0.0916512
115	0xbdea481d	-0.11439536
116	0xbdad39fe	-0.08458327
117	0xbf10423e	-0.5635108
118	0xbc763f5c	-0.0150297545
119	0x3d50c91b	0.05097304
120	0xbe491185	-0.1963559
121	0x3eba2d46	0.36362666
122	0x3e84dab8	0.2594812
123	0xbda37231	-0.07980765
124	0x3ebc6a8e	0.36800045
125	0x3df9c758	0.12196225
126	0xbecc892e	-0.3994841
127	0xbe93bcea	-0.28855067
128	0xbdb34fbf	-0.08755445
129	0xbdf2b078	-0.11850065
130	0x3bf5646b	0.0074887774
131	0x3e01c5a6	0.12673053
132	0xbe10cbf2	-0.14140299
133	0x3d85a7fa	0.065261796
134	0x3dd3741f	0.10324883
135	0xbe8e0fbe	-0.27746385
136	0xbe540af5	-0.20707305
137	0x3cdbb722	0.026820723
138	0xbed823c1	-0.42214778
139	0xbe28e541	-0.16493703
140	0x3d194e51	0.037428204
141	0x3bd4516c	0.006479433
142	0x3e24a315	0.16077836
143	0x3ec9d2d4	0.39418662

encoder2_2.conv2.bias f4 [4]
0	0x3d0912ba	0.033465125
1	0xbe44557d	-0.19173236
2	0x3c50bf49	0.012740918
3	0xbe065758	-0.13119256

encoder2_2.conv3.weight f4 [4, 4, 3, 3]
0	0xbd875e5f	-0.06609797
1	0xbe3208cc	-0.17386168
2	0xbc4718fa	-0.012151951
3	0xbe5e5d65	-0.21715315
4	0xbe5749a2	-0.21024182
5	0xbe1caf1c	-0.15301174
6	0x3de7ce17	0.113186054
7	0xbe236d7b	-0.15959732
8	0xbd8f9ba4	-0.07012108
9	0xbdfc1f93	-0.1231071
10	0xbdf7bb67	-0.12096291
11	0x3e3af359	0.18256892
12	0x3e0906ff	0.13381575
13	0x3e0b50b8	0.1360501
14	0x3e43652a	0.1908156
15	0x3e29a02f	0.16565011
16	0x3e070fd4	0.13189632
17	0xbdb1fb9f	-0.08690571
18	0x3ca77721	0.020442547
19	0x3e59078f	0.2119429
20	0x3b725eeb	0.0036982845
21	0x3dc48187	0.09595018
22	0x3e2a2953	0.16617326
23	0xbdc6d69f	-0.097089045
24	0x3c17802a	0.009246865
25	0xbe10ef93	-0.1415389
26	0xbe4fe334	-0.20301515
27	0x3e851539	0.25992754
28	0x3e130475	0.14357169
29	0x3d719e3b	0.05898879
30	0x3e8dad54	0.276713
31	0xbc03143d	-0.008000431
32	0xbea3a2ff	-0.31960294
33	0x3d17e8bc	0.037087187
34	0xbc25e88e	-0.010126246
35	0xbeb34fef	-0.35021922
36	0xbe065241	-0.13117315
37	0xbc9ae9d3	-0.018910324
38	0x3e244f79	0.16045941
39	0xbc03d413	-0.008046168
40	0xbd2dd7e0	-0.042442203
41	0xbd879fbc	-0.06622264
42	0x3e278b8b	0.16361825
43	0x3e54fc59	0.20799388
44	0x3de9ddb4	0.1141924
45	0x3e97c690	0.2964368
46	0x3dcf8508	0.101327956
47	0xbeb847f8	-0.35992408
48	0x3e61eab2	0.22062185
49	0xbe7caf43	-0.24676232
50	0xbea1668b	-0.31523547
51	0xbd385cc7	-0.045010354
52	0xbe3a02e4	-0.18165165
53	0xbd2c8b14	-0.042124823
54	0x3e15b974	0.14621526
55	0x3c8eefa5	0.017448256
56	0x3d83a934	0.06428757
57	0x3e931a23	0.28730878
58	0xbd53d3ae	-0.051715545
59	0x3e608be5	0.21928366
60	0xbd89319c	-0.06698915
61	0xbe3c2a84	-0.18375593
62	0x3af37d30	0.0018576737
63	0x3c1724e5	0.009225105
64	0xbca83ec4	-0.020537741
65	0xbeaccea8	-0.33751416
66	0xbeac52da	-0.3365696
67	0xbd675a0e	-0.056482367
68	0xbd89ecdf	-0.06734633
69	0xbeb2c25a	-0.34913903
70	0xbe2a316e	-0.16620418
71	0x3cd120cc	0.025528334
72	0xbd84005d	-0.06445382
73	0x3f04ba4a	0.51846755
74	0x3e808e51	0.2510858
75	0xbf0729ef	-0.5279836
76	0x3ddbcb6b	0.10732158
77	0xbea714fb	-0.32633194
78	0xbef390d0	-0.4757142
79	0x3e7c9daf	0.24669527
80	0x3c064238	0.008194499
81	0x3e8cef68	0.27526402
82	0xbe87595a	-0.26435357
83	0xbda8c4d9	-0.08240671
84	0xbe758de7	-0.23979913
85	0xbea18afb	-0.31551346
86	0x3d2e9117	0.042618837
87	0x3d6a934f	0.05726939
88	0x3d9abc71	0.075554736
89	0xbd797f6c	-0.060912535
90	0x3e458e97	0.19292675
91	0xbe12638d	-0.14295788
92	0xbf09b0ca	-0.53785384
93	0x3e5a339c	0.2130875
94	0xbdd90ae1	-0.10597778
95	0xbe986718	-0.29766154
96	0x3e34c0f9	0.17651738
97	0x3dece16f	0.115664355
98	0x3bcfa0ce	0.006336308
99	0xbd1adeea	-0.037810244
100	0x3e92c954	0.28669226
101	0x3ddf8f26	0.10915975
102	0xbe81a156	-0.25318402
103	0x3e96ff5b	0.29491696
104	0xbe4a2062	-0.19738916
105	0xbedc435b	-0.43020138
106	0x3e3301b5	0.1748112
107	0xbe44f2f3	-0.19233303
108	0x3e066d5c	0.13127655
109	0x3e11d36a	0.14240804
110	0x3dfea36a	0.124335125
111	0x3e264512	0.16237286
112	0x3e6047e8	0.2190243
113	0x3d1c5e1f	0.0381757
114	0xbefd919d	-0.49525157
115	0xbec64fa0	-0.38732624
116	0xbe9cc16e	-0.30616325
117	0xbdc7fc0c	-0.09764871
118	0xbc3f33ff	-0.011670112
119	0x3e4da7a2	0.20083478
120	0x3dbb8059	0.0915534
121	0xbe486f9d	-0.19573827
122	0x3d91a218	0.07110995
123	0xbe5d114b	-0.21588628
124	0xbe0d0e14	-0.13774902
125	0x3c428f06	0.01187492
126	0xbd240305	-0.040041942
127	0xbec28169	-0.37989357
128	0xbe71030f	-0.23536323
129	0x3c174685	0.009233122
130	0xbe1e07c3	-0.15432648
131	0x3d9dca90	0.07704651
132	0x3ece2733	0.40264282
133	0x3e114060	0.14184713
134	0x3ea30ae2	0.3184424
135	0xbf2bd234	-0.6711762
136	0xbe1bdfba	-0.15222064
137	0xbefbac62	-0.49154955
138	0x3d6c1be4	0.057643786
139	0x3ed07ec3	0.40721712
140	0x3e33947c	0.17537111
141	0x3d63e301	0.05563641
142	0x3d517dbf	0.05114531
143	0xbbb85b18	-0.0056260936

encoder2_2.conv3.bias f4 [4]
0	0x3da6da68	0.081471264
1	0x3d77205f	0.060333606
2	0xbddf8834	-0.109146506
3	0x3d12a89d	0.035805333

encoder2_2.conv4.weight f4 [4, 4, 3, 3]
0	0x3ef7e40d	0.48416176
1	0x3e3f9d9e	0.1871247
2	0x3e66a88e	0.22525236
3	0x3eb470c0	0.3524227
4	0x3d13d675	0.036093194
5	0x3df37d26	0.118891045
6	0xbd259fed	-0.04043572
7	0x3c843a56	0.016141098
8	0x3e72f9b6	0.2372807
9	0x3e6c71ab	0.23090236
10	0x3e004011	0.1252444
11	0x3e575fc7	0.2103263
12	0x3e919bf1	0.28439286
13	0x3d1a4482	0.03766299
14	0xbca4c785	-0.02011467
15	0xbe830a79	-0.25593928
16	0xbdf23d95	-0.11828152
17	0xbeb22a21	-0.34797767
18	0x3dbc7bca	0.092032984
19	0x3c5e1d8a	0.013556847
20	0xbefbd2dc	-0.4918431
21	0x3b1eff8a	0.00242612
22	0x3dc7351a	0.09726925
23	0xbe16f0e7	-0.14740334
24	0x3cfb2ed0	0.03066197
25	0xbe182b04	-0.14860159
26	0x3e3b14d3	0.18269663
27	0x3e0345e3	0.12819628
28	0x3e23cd4b	0.15996282
29	0xbd6abc26	-0.05730834
30	0x3cd853cf	0.02640715
31	0x3e06b565	0.13155134
32	0xbdc98ec2	-0.09841682
33	0x3e5d8ec7	0.21636496
34	0x3ed91d94	0.4240538
35	0x3e997f7d	0.29980078
36	0xbd103d6a	-0.03521482
37	0x3c98a655	0.018634
38	0x3de8fc8a	0.11376293
39	0xbe9d01b1	-0.30665353
40	0x3dd93ad9	0.106069274
41	0x3bd1d648	0.006403718
42	0x3e17810a	0.14795318
43	0x3c32cb5f	0.010912745
44	0x3d8bb1d1	0.06821025
45	0xbe70a3da	-0.23500004
46	0x3d122ae5	0.03568544
47	0xbe772100	-0.24133682
48	0xbe457e85	-0.19286545
49	0x3e3c0304	0.18360525
50	0x3e5f55eb	0.21810119
51	0x3d771924	0.06032671
52	0x3d1825ad	0.037145305
53	0x3dc4e817	0.0961458
54	0xbe8d7abd	-0.27632704
55	0x3d98e4d6	0.07465522
56	0xbd65df75	-0.05612131
57	0xbec40e9d	-0.382924
58	0xbe4acaf0	-0.19803977
59	0xbe0f9e2e	-0.14025185
60	0xbeb8a8be	-0.3606624
61	0xbe3e610c	-0.18591708
62	0xbe8f865b	-0.28032193
63	0xbe42af13	-0.19012098
64	0xbe4660f8	-0.19372928
65	0xbd4bfc5f	-0.049801227
66	0x3d92dd7c	0.07171151
67	0xbd6742dc	-0.056460246
68	0xbdae4294	-0.085087925
69	0xbdac5c4f	-0.08416044
70	0xbe715da8	-0.23570883
71	0xbe13966d	-0.14412852
72	0xbd83dc04	-0.06438449
73	0x3d15ffcd	0.036620904
74	0xbd7133fa	-0.05888746
75	0x3e80f910	0.2519002
76	0xbdcecb64	-0.100973874
77	0xbe37c41f	-0.17945908
78	0x3ef10262	0.4707213
79	0xbcccb2ef	-0.024987666
80	0x3d809bcf	0.06279718
81	0xbeaebb52	-0.3412729
82	0xbe1b1312	-0.15143993
83	0x3d9afdad	0.07567916
84	0xbec78d6c	-0.38975084
85	0x3dbbfa93	0.091786526
86	0x3e8fdb81	0.28097156
87	0xbe9e02dc	-0.30861557
88	0x3e7b73d4	0.24555904
89	0x3e800e50	0.2501092
90	0xbdad413a	-0.084597066
91	0xbeeb16e6	-0.45915908
92	0xbf127dd6	-0.5722326
93	0x3d68b962	0.05681742
94	0xbe980d3f	-0.29697606
95	0xbefbbee0	-0.49169064
96	0xbd1ce85c	-0.038307533
97	0x3dcc87bf	0.09986829
98	0xbc67bf83	-0.014144781
99	0xbe18242b	-0.14857547
100	0xbe8e90ad	-0.27844754
101	0xbea6e8c4	-0.3259946
102	0xbe6e4f87	-0.23272525
103	0xbe43ab22	-0.1910825
104	0xbdcd80bd	-0.100343205
105	0x3e8f1db2	0.27952343
106	0xbe007d19	-0.12547721
107	0xbe190773	-0.14944248
108	0xbe3725f7	-0.17885576
109	0xbdfa3a55	-0.12218157
110	0x3db6348d	0.08896742
111	0xbe10a667	-0.14125977
112	0x3d89278f	0.06696998
113	0x3e020b97	0.12699734
114	0xbe315d87	-0.17320834
115	0x3e3cbf64	0.18432385
116	0x3eb5522b	0.35414252
117	0x3ef61064	0.4805938
118	0xbdfcdc34	-0.12346688
119	0xbe509c42	-0.20372108
120	0xbdc7856c	-0.09742245
121	0xbeb5dd17	-0.3552024
122	0xbea2c597	-0.31791374
123	0xbe8f765d	-0.28019992
124	0xbe915078	-0.28381705
125	0x3d215cd0	0.039395154
126	0xbe32c172	-0.17456606
127	0x3dc8858b	0.09791096
128	0xbea17e26	-0.31541556
129	0xbc1ee38a	-0.009697804
130	0x3d392001	0.045196537
131	0xbf063694	-0.5242703
132	0x3ccc0fac	0.024909817
133	0x3de9a99d	0.11409304
134	0xbe92aa05	-0.2864534
135	0xbd21119a	-0.039323427
136	0xbc39ce13	-0.011340636
137	0x3e5b5adb	0.21421377
138	0x3d915cae	0.07097755
139	0x3d8ba946	0.06819396
140	0xbe306e3d	-0.17229553
141	0xbdb1be56	-0.08678882
142	0xbea53c72	-0.3227268
143	0xbea9ce24	-0.33165085

encoder2_2.conv4.bias f4 [4]
0	0x3de65fc2	0.11248733
1	0xbdd71fe9	-0.10504133
2	0xbe023b8c	-0.12718028
3	0xbce1c2b8	-0.02755867

encoder2_2.upsample.weight f4 [4, 2, 1, 1]
0	0xbf0d840b	-0.55279607
1	0x3f1ac5d9	0.6045814
2	0x3f3a5844	0.7279093
3	0x3f21aec9	0.63157326
4	0x3eb4a900	0.35285187
5	0x3ee24470	0.4419284
6	0x3eba45e5	0.3638145
7	0xbebe0c86	-0.3711893

encoder2_2.upsample.bias f4 [4]
0	0xbe3f2db7	-0.18669783
1	0xbf1f573c	-0.62242484
2	0xbc1b92de	-0.009495465
3	0x3e32ea6a	0.17472234

encoder2_2.bn1.weight f4 [4]
0	0x3f6db10e	0.9284829
1	0x3f894ac5	1.0725943
2	0x3f70ff88	0.9413991
3	0x3f912c86	1.1341712

encoder2_2.bn1.bias f4 [4]
0	0x3dae4852	0.08509888
1	0x3eafe778	0.34356284
2	0xbe984fa1	-0.29748252
3	0x3d028506	0.031865142

encoder2_2.bn1.running_mean f4 [4]
0	0xbfb9eba2	-1.4525034
1	0xbf4e1df6	-0.80514467
2	0x3fc69855	1.5515238
3	0x3ccb64af	0.024828283

encoder2_2.bn1.running_var f4 [4]
0	0x3e32e62d	0.17470618
1	0x3d44ebd4	0.048076466
2	0x3ebac3b5	0.36477438
3	0x3da9c60e	0.08289729

encoder2_2.bn2.weight f4 [4]
0	0x3f302a6d	0.68814737
1	0x3f9dec53	1.2337745
2	0x3f50834b	0.8145034
3	0x3f60acb3	0.8776352

encoder2_2.bn2.bias f4 [4]
0	0xbec03dda	-0.3754719
1	0x3ed14847	0.40875456
2	0xbe3c4731	-0.18386532
3	0xbd13bc89	-0.036068473

encoder2_2.bn2.running_mean f4 [4]
0	0x3f94e45f	1.1632193
1	0x3e67d042	0.22638038
2	0x3c969ac1	0.01838434
3	0x3e17acbe	0.1481199

encoder2_2.bn2.running_var f4 [4]
0	0x3f9ab2e3	1.2085842
1	0x3f3b85e7	0.73251194
2	0x3f43c7cd	0.76476747
3	0x3ff94da1	1.9476815

encoder2_3.conv1.weight f4 [4, 2, 3, 3]
0	0x3eb68746	0.3565008
1	0x3e48fa91	0.19626833
2	0x3ede8391	0.43459752
3	0xbd41d6d2	-0.04732401
4	0x3e8b8be3	0.27255163
5	0x3e9c7ec8	0.30565476
6	0xbe884d69	-0.2662156
7	0x3dcef934	0.101061255
8	0x3e580307	0.21094905
9	0x3d82cb8a	0.06386478
10	0x3e8486bf	0.25884053
11	0xbe52bf80	-0.20580864
12	0x3e6b9650	0.23006558
13	0xbe3e8fc9	-0.18609537
14	0x3d9b5628	0.075847924
15	0x3de381cd	0.11108742
16	0xbe36bfd3	-0.17846613
17	0xbe207fe6	-0.1567379
18	0x3d7cab58	0.061686844
19	0x3d563995	0.05230101
20	0xbe3201bb	-0.17383473
21	0x3dfa56df	0.122236006
22	0xbe636327	-0.22205792
23	0x3c92b33b	0.01790773
24	0x3d3f1834	0.04665394
25	0xbdd58837	-0.104263715
26	0x3d645bb4	0.055751517
27	0x3a548b97	0.0008107959
28	0xbdc0dcfb	-0.09417149
29	0xbdd2de94	-0.1029636
30	0x3da86220	0.08221841
31	0xbe12e35e	-0.14344546
32	0x3e397015	0.18109162
33	0x3e243032	0.1603401
34	0x3cbca0a9	0.023025827
35	0x3d7ecd84	0.062207714
36	0x3ed27535	0.41105047
37	0xbd15802b	-0.036499184
38	0x3dcd5562	0.10026051
39	0x3d9b91a4	0.07596138
40	0xbd8462a1	-0.064641245
41	0xbec318b5	-0.38104787
42	0x3e50f0d6	0.20404372
43	0xbc00e295	-0.007866521
44	0xbed05288	-0.40687966
45	0xbe5f2007	-0.21789561
46	0x3e6bd1ec	0.23029298
47	0x3d2bbe6a	0.04192964
48	0x3d9cf966	0.076647565
49	0x3e2b8a47	0.16751967
50	0xbcf1268a	-0.029437322
51	0xbdc6006c	-0.09668049
52	0x3e7bd8f4	0.2459448
53	0xbd9fc64b	-0.07801493
54	0xbe52d9d8	-0.20590913
55	0x3e6f0936	0.23343357
56	0xbe6fbf56	-0.23412833
57	0x3e6e73a3	0.232863
58	0xbd98e3a8	-0.07465297
59	0xbe218624	-0.15773827
60	0x3d1864c3	0.03720547
61	0xbd818658	-0.06324452
62	0xbcffd057	-0.031227274
63	0xbe0a8078	-0.1352557
64	0x3e49de3e	0.19713685
65	0x3d121f37	0.0356743
66	0xbdb4e34a	-0.088324144
67	0xbdadf355	-0.084936775
68	0xbe062de4	-0.13103443
69	0x3c128dac	0.00894491
70	0x3e17bbc7	0.14817725
71	0xbe004bda	-0.12528935

encoder2_3.conv1.bias f4 [4]
0	0x3e4273d2	0.18989494
1	0xbe7bd7b3	-0.24594001
2	0x3e0781e6	0.13233146
3	0xbe1b3bd0	-0.15159535

encoder2_3.conv2.weight f4 [4, 4, 3, 3]
0	0x3dec919d	0.11551211
1	0xbea00919	-0.3125694
2	0xbe031905	-0.12802513
3	0xbcb2c156	-0.021820705
4	0xbcd1831d	-0.025575215
5	0xbec1c700	-0.37847137
6	0x3df276cb	0.11839064
7	0xbd99573b	-0.07487341
8	0xbe33211b	-0.17493097
9	0xbd09f7e8	-0.033683687
10	0xbe3b8e19	-0.18315925
11	0xbdd4ced8	-0.10391015
12	0xbcdedf26	-0.027206015
13	0xbd957f09	-0.07299621
14	0xbe344484	-0.17604262
15	0xbc3c8ad1	-0.011507706
16	0xbd90903e	-0.07058762
17	0x3e080ff6	0.13287339
18	0x3e4c632f	0.1995971
19	0x3e7ca833	0.24673538
20	0x3da65c91	0.081231244
21	0x3e7de021	0.2479253
22	0x3dd15d67	0.10222893
23	0x3e95ac07	0.2923281
24	0xbd283e56	-0.041075073
25	0xbdaeed5d	-0.08541367
26	0xbd741b1f	-0.059596177
27	0x3cf3f9b6	0.029782157
28	0xbe15dfce	-0.14636156
29	0x3de75f23	0.11297443
30	0x3e016abb	0.1263837
31	0xbdc017b0	-0.09379518
32	0x3d97aa0b	0.0740548
33	0x3d3df24b	0.046373647
34	0x3dd05f73	0.101744555
35	0x3cb0ba00	0.021573067
36	0x3d1ab1a9	0.037767086
37	0x3ea62464	0.3244964
38	0x3d3e6663	0.046484362
39	0xbe81ba09	-0.25337246
40	0x3e80b70e	0.2513966
41	0x3db7ead0	0.08980334
42	0xbea1d545	-0.31608024
43	0xbe910268	-0.28322148
44	0xbe176000	-0.14782715
45	0xbc74be05	-0.014937882
46	0x3d0fc9b4	0.03510447
47	0x3def20ff	0.116762154
48	0x3e076d78	0.13225353
49	0xbd3d03e2	-0.04614628
50	0xbdb4ddf4	-0.08831397
51	0x3dce21be	0.100650296
52	0xbd9528d7	-0.0728318
53	0x3cc6cb95	0.024266997
54	0xbf372313	-0.71537894
55	0x3ce8d2ea	0.028420884
56	0x3f1091a9	0.5647226
57	0xbf07de18	-0.53073263
58	0x3e2e7e4d	0.17040367
59	0x3ed125bd	0.40849105
60	0x3dc60d48	0.09670502
61	0x3e1b6e83	0.15178876
62	0x3db83e5a	0.089962676
63	0xbd17c180	-0.03704977
64	0x3dfd61d8	0.12372178
65	0xbdaae338	-0.0834412
66	0x3d9e8206	0.07739644
67	0xbdc80f13	-0.097685
68	0xbd66ee50	-0.056379616
69	0xbc0c4180	-0.008560538
70	0xbe1f6d88	-0.15569127
71	0xbcdfd036	-0.027320962
72	0x3e93e5ed	0.28886357
73	0xbd57d0bd	-0.052689303
74	0xbe34567f	-0.1761112
75	0x3e3fa87d	0.18716617
76	0xbe1c8a31	-0.15287091
77	0xbd8cacef	-0.06868922
78	0x3e2cee01	0.16887666
79	0x3e76c9e0	0.24100447
80	0x3d60e4e3	0.054905783
81	0xbd34df6c	-0.044158384
82	0x3ba61de2	0.0050694803
83	0x3d225b20	0.039637685
84	0x3d87ccbf	0.06630849
85	0xbd315fcd	-0.043304253
86	0x3ccaf62b	0.024775585
87	0x3dd8e095	0.105897106
88	0xbe273a79	-0.163309
89	0xbcccde55	-0.02500836
90	0x3eb55d96	0.35422963
91	0x3e748794	0.23879844
92	0x3e54ebbb	0.20793049
93	0x3d6cdd54	0.057828262
94	0xbc1645a2	-0.009171875
95	0xbdb1cbd8	-0.08681458
96	0xbd2caff5	-0.042159993
97	0xbe426a8b	-0.18985955
98	0xbd403e31	-0.04693431
99	0xbe1522f0	-0.14564109
100	0xbe08d7a6	-0.13363513
101	0x3e081e48	0.13292801
102	0x3dc07086	0.09396462
103	0xbd8d399b	-0.06895753
104	0xbdebc960	-0.115130186
105	0xbe14c3bb	-0.1452779
106	0x3d870448	0.065926135
107	0x3cfca06b	0.030838212
108	0x3e2d228f	0.16907714
109	0x3ea3c530	0.3198638
110	0x3eb5f829	0.35540894
111	0xbdded32b	-0.10880121
112	0x3db1d618	0.08683413
113	0xbd10f98f	-0.035394248
114	0x3ddbe009	0.10736091
115	0xbd920d32	-0.07131423
116	0xbcc0fcbb	-0.023558011
117	0x3d801c64	0.06255415
118	0x3da9f64c	0.082989305
119	0x3d9f851e	0.07789062
120	0x3ba68206	0.005081418
121	0x3d9474c9	0.072488375
122	0xbb0b194f	-0.0021224802
123	0xbdca1065	-0.09866408
124	0xbd54606f	-0.05184978
125	0xbdaf8719	-0.0857069
126	0xbde3793c	-0.11107108
127	0xbd2dbbe9	-0.042415533
128	0x3e51a32d	0.20472403
129	0x3bcdcc39	0.0062804488
130	0xbc8d06e2	-0.017215196
131	0x3c33ef86	0.0109824
132	0x3e208813	0.15676908
133	0xbd2e9793	-0.04262502
134	0xbdf17803	-0.117904685
135	0xbddc14bb	-0.107461415
136	0x3d23e160	0.040009856
137	0xbc718356	-0.014740786
138	0xbcdce540	-0.026964784
139	0x3de3c54e	0.11121617
140	0x3dcf4c6e	0.10122
141	0xbc8f5a00	-0.01749897
142	0xbdcaf406	-0.09909825
143	0x3d648de6	0.055799387

encoder2_3.conv2.bias f4 [4]
0	0x3d657c23	0.05602659
1	0x3de4bad2	0.11168446
2	0xbe52e22e	-0.20594093
3	0xbd9af80c	-0.075668424

encoder2_3.conv3.weight f4 [4, 4, 3, 3]
0	0xbe4b46cd	-0.19851227
1	0xbe47c313	-0.19508009
2	0x3c46d9df	0.012136905
3	0xbe18254b	-0.14857976
4	0xbe119833	-0.14218216
5	0xbd6b4fcb	-0.057449143
6	0xbd68e326	-0.05685725
7	0xbda10ba3	-0.07863548
8	0xbe26c9c9	-0.16287912
9	0xbeb06397	-0.3445098
10	0xbf2d41db	-0.6767861
11	0xbf12c934	-0.5733826
12	0x3f182051	0.5942431
13	0xbee18e2d	-0.44053784
14	0xbf8013dc	-1.0006061
15	0x3eec4dc1	0.46153072
16	0x3ecf66a6	0.40508002
17	0xbea3dec3	-0.3200589
18	0xbe9f9630	-0.3116927
19	0xbe05fc01	-0.13084413
20	0xbc625b71	-0.013815747
21	0xbe0dca8b	-0.13846795
22	0x3c5eacfe	0.013591049
23	0x3de06491	0.109566815
24	0xbdffdf50	-0.12493765
25	0x3e070e63	0.13189082
26	0x3e3d9d26	0.18516979
27	0xbea96f29	-0.3309262
28	0xbe93271a	-0.2874077
29	0x3dca3456	0.098732635
30	0xbeb1ee64	-0.3475219
31	0xbe5d7470	-0.21626449
32	0x3c042d1e	0.008067397
33	0x3e73ce75	0.23809226
34	0xbcdf7b77	-0.027280552
35	0xbe4a7085	-0.19769485
36	0x3c0f4706	0.008744961
37	0xbcf1360e	-0.02944472
38	0xbe667685	-0.22506149
39	0xbe57ad5c	-0.21062225
40	0xbe50ee07	-0.204033
41	0xbdb5728e	-0.0885974
42	0xbbd6b930	-0.006552838
43	0xbd39184a	-0.04518918
44	0x3ce85175	0.028359154
45	0xbea589d3	-0.32331714
46	0xbe6c45c5	-0.2307349
47	0xbe64f8fe	-0.22360608
48	0xbb9e9692	-0.0048397267
49	0x3d016e15	0.031599123
50	0x3ea6cfcc	0.3258041
51	0xbe9118bc	-0.28339183
52	0xbe264a85	-0.16239364
53	0x3eac4973	0.33649787
54	0xbe1ee8b4	-0.15518457
55	0xbe6a680e	-0.22891256
56	0x3de37e1d	0.111080386
57	0x3ce7d835	0.028301338
58	0xbe28841b	-0.16456644
59	0xbc325b4e	-0.010886027
60	0xbd06190e	-0.032738738
61	0xbdc112ab	-0.09427389
62	0xbc87eae7	-0.016591502
63	0x3cea3c7b	0.028593292
64	0xbe32244b	-0.17396657
65	0xbe859792	-0.260922
66	0xbe5bc5bf	-0.21462153
67	0xbc46af1e	-0.012126712
68	0x3cb1312f	0.021629898
69	0xbd1ef28f	-0.03880554
70	0xbd3e9962	-0.046532996
71	0x3e7b099d	0.24515386
72	0xbe2db93e	-0.16965196
73	0xbd9b9bba	-0.07598062
74	0xbd4f5c3f	-0.050625082
75	0x3d9145c0	0.07093382
76	0xbe25e71a	-0.1620144
77	0xbe4a685f	-0.19766377
78	0x3d4197b7	0.047263827
79	0xbe16b9f6	-0.14719376
80	0xbde7ea25	-0.113239564
81	0xbe9d9977	-0.30781147
82	0x3bd248b0	0.0064173564
83	0xbe863079	-0.26208857
84	0x3c902710	0.017596751
85	0x3cd1965f	0.025584398
86	0xbcbf785a	-0.023372818
87	0x3e080f80	0.13287163
88	0xbcb945e3	-0.022616332
89	0xbd12bd69	-0.035825167
90	0x3d286944	0.041116014
91	0xbd4fe635	-0.050756652
92	0x3cdb8f6f	0.026801793
93	0x3ae38332	0.0017357825
94	0x3de131ea	0.109958485
95	0x3dfe1e2d	0.12408099
96	0x3d93b21b	0.07211705
97	0x3da361c8	0.07977635
98	0xbbf2b3b6	-0.007406677
99	0x3d7eabb7	0.06217548
100	0xbe1ca776	-0.15298256
101	0xbe323866	-0.17404327
102	0xbc1ca207	-0.009560115
103	0xbe8e5523	-0.2779933
104	0xbe6084d7	-0.21925674
105	0xbea2826a	-0.31740123
106	0xbdd5660d	-0.10419855
107	0xbe82b648	-0.25529695
108	0x3d096c48	0.03355053
109	0xbe4e5769	-0.20150532
110	0x3ddbe2ff	0.107366554
111	0xbdfe5186	-0.12417893
112	0xbdf2b722	-0.11851336
113	0xbe293928	-0.1652571
114	0xbdcce942	-0.10005428
115	0x3d8d182d	0.06889377
116	0x3de13d15	0.109979786
117	0xbdba7452	-0.091042176
118	0xbe23c952	-0.15994766
119	0x3d7fa59f	0.062413808
120	0xbcda7118	-0.026665255
121	0x3ce4a401	0.027910234
122	0xbde10446	-0.10987143
123	0x3ca12252	0.019669686
124	0xbdc38cac	-0.095483154
125	0x3d8f4327	0.0699523
126	0xbd5e93b8	-0.054340094
127	0xbe469232	-0.19391707
128	0xbe4df433	-0.20112686
129	0xbd90eee6	-0.07076816
130	0x3d6fcafc	0.05854319
131	0xbd2ba600	-0.041906357
132	0xbe39405f	-0.18090962
133	0x3d92b8bf	0.07164144
134	0xbdf1886c	-0.117935985
135	0xbd1522da	-0.03641019
136	0xbe261ec5	-0.16222675
137	0xbd4ba1db	-0.049714904
138	0xbce9b955	-0.028530756
139	0xbdc87394	-0.0978767
140	0xbe154d8a	-0.1458036
141	0xbe0795e5	-0.13240774
142	0x3cd958c3	0.026531583
143	0xbabbf89c	-0.0014341059

encoder2_3.conv3.bias f4 [4]
0	0xbe182870	-0.14859176
1	0xbd4adaec	-0.049525186
2	0x3e32e285	0.17469223
3	0xbb8cec2c	-0.004300615

encoder2_3.conv4.weight f4 [4, 4, 3, 3]
0	0xbe3b741f	-0.18306015
1	0x3ed143a8	0.4087193
2	0x3ea81958	0.32831836
3	0xbe663994	-0.22482902
4	0x3e48e3e1	0.19618179
5	0xbe5dd0bc	-0.21661657
6	0xbe938cc3	-0.2881833
7	0x3cc53fe7	0.024078323
8	0xbe60dbca	-0.21958843
9	0x3ea5be50	0.3237176
10	0x3ea92505	0.33036056
11	0x3e340cdc	0.1758303
12	0xbe109aa1	-0.14121486
13	0x3e276b1a	0.1634945
14	0x3eb288ec	0.34870088
15	0xbdff04c6	-0.12452082
16	0xbe150004	-0.14550787
17	0xbdf55a3d	-0.11980102
18	0x3db176b5	0.0866522
19	0xbe76510c	-0.24054354
20	0x3d68376c	0.05669348
21	0x3dcb6c20	0.099327326
22	0xbdfaa535	-0.12238542
23	0xbddf5b7f	-0.10906123
24	0xbe4e6acc	-0.20157927
25	0xbd6d48d9	-0.0579308
26	0x3b46a332	0.0030309674
27	0x3e27ef66	0.16399917
28	0x3e34d626	0.17659816
29	0x3bdec3db	0.00679825
30	0xbda1c044	-0.07898
31	0x3ce90cbb	0.028448453
32	0xbe04c30a	-0.12965026
33	0xbd10a5f7	-0.035314526
34	0x3dd82cc2	0.10555412
35	0x3d1cf1c0	0.03831649
36	0x3ed2c246	0.41163844
37	0x3fb4ba49	1.411935
38	0x3f3983f3	0.72466964
39	0xbe4f82c8	-0.20264733
40	0x3e97d11e	0.2965173
41	0x3fa851ed	1.3150002
42	0xbef1d889	-0.47235516
43	0xbe759816	-0.23983797
44	0xbcba2084	-0.022720583
45	0x3e7578d6	0.23971877
46	0x3e046f99	0.12933196
47	0x3dcf1e05	0.10113148
48	0x3d5a68d7	0.05332264
49	0xbd934eb9	-0.071927495
50	0xbe282634	-0.16420823
51	0xbe680360	-0.22657537
52	0xbe692504	-0.22768027
53	0xbe48ebdb	-0.19621222
54	0xbe0d3ed6	-0.13793501
55	0xbe9221d3	-0.2854143
56	0x3deeaac3	0.11653664
57	0xbe677e9c	-0.22606891
58	0xbe242676	-0.16030297
59	0xbd3bc3ba	-0.045840956
60	0x3c2ca423	0.01053718
61	0xbd904e83	-0.07046225
62	0x3e2961dc	0.16541237
63	0x3c88c670	0.016696185
64	0xbd56530a	-0.052325286
65	0xbdac19aa	-0.084033325
66	0xbe2925a9	-0.16518272
67	0xbe386eee	-0.18011066
68	0xbe4d43fd	-0.20045467
69	0xbe1c2941	-0.15250112
70	0x3d0667f8	0.032813996
71	0xbd8464c0	-0.06464529
72	0x3cfe9028	0.031074598
73	0x3e766893	0.2406333
74	0xbd6eab10	-0.058268607
75	0xbe20cb18	-0.15702474
76	0xbe18b60f	-0.149132
77	0xbe46d704	-0.1941796
78	0xbdb1ccb8	-0.08681625
79	0xbe1b426c	-0.15162057
80	0xb8c06bc8	-9.175349e-05
81	0xbd70f290	-0.058825076
82	0xbe2654df	-0.16243313
83	0x3d7874fe	0.060658447
84	0xbbecbaee	-0.007224432
85	0x3cdeebb9	0.02721201
86	0xbd611efd	-0.054961193
87	0xbc750a66	-0.014956092
88	0x3ce47e82	0.027892355
89	0x3d184fe2	0.037185557
90	0x3d82a149	0.06378419
91	0xbda2350a	-0.07920273
92	0xbe971a5e	-0.29512304
93	0x3e554a51	0.2082913
94	0x3d3968d5	0.04526599
95	0xbdd4c04c	-0.1038824
96	0x3d7fbfac	0.062438652
97	0x3e52667b	0.20546906
98	0x3db13b1c	0.08653852
99	0xbd8897d9	-0.06669588
100	0xbdb0c700	-0.08631706
101	0x3ceb3aeb	0.028714618
102	0xbe12a185	-0.14319427
103	0xbe4d3a3e	-0.20041749
104	0xbd3860dc	-0.045014247
105	0xbd3a60df	-0.04550254
106	0xbe180744	-0.14846522
107	0xbe075a2a	-0.13217989
108	0xbdef3eb9	-0.11681885
109	0xbd0b6496	-0.034031473
110	0x3e36a1bc	0.17835134
111	0xbea29366	-0.3175308
112	0xbddb8fda	-0.10720797
113	0xbd3c3352	-0.04594738
114	0x3e3f6789	0.1869184
115	0x3d6f4ecb	0.058424752
116	0x3c57a2b0	0.013161346
117	0x3e0a0f1a	0.13482323
118	0xbcb12b00	-0.02162695
119	0x3cdc8b15	0.026921788
120	0x3e57d61e	0.21077773
121	0x3dbc6b83	0.09200194
122	0xbe05a8a4	-0.13052613
123	0xbc0b8af1	-0.008517013
124	0xbd3ac8ab	-0.04560153
125	0xbe543eeb	-0.20727126
126	0xbddf4491	-0.1090175
127	0xbe58afb2	-0.21160772
128	0xbe422b87	-0.18961917
129	0xbe042eab	-0.12908427
130	0xbe9fb8fb	-0.31195816
131	0xbd0143fc	-0.031558976
132	0xbccf7eaf	-0.025328962
133	0xbc043a76	-0.008070579
134	0xbe314b0d	-0.17313786
135	0xbd70ee42	-0.05882097
136	0x3c9f9124	0.019478388
137	0x3cbd18a6	0.023083042
138	0x3d46e312	0.048556395
139	0x3dc467c2	0.09590103
140	0xbe51ffbc	-0.20507711
141	0x3d4933e5	0.049121756
142	0xbd382932	-0.044961162
143	0x3d2996b9	0.041403506

encoder2_3.conv4.bias f4 [4]
0	0xbdd37f13	-0.10326972
1	0x3c7bceb9	0.015369111
2	0xbd4d27ef	-0.05008691
3	0xbd560da6	-0.05225911

encoder2_3.upsample.weight f4 [4, 2, 1, 1]
0	0xbe994b96	-0.2994048
1	0xbe003241	-0.1251917
2	0xbe13bdc5	-0.1442786
3	0xbedcd152	-0.4312845
4	0xbe6245bb	-0.22096913
5	0xbee6391e	-0.44965452
6	0xbeb563a9	-0.35427597
7	0xbe204231	-0.1565025

encoder2_3.upsample.bias f4 [4]
0	0x3dffa3bd	0.124824025
1	0xbe9cede0	-0.30650234
2	0x3e8f5bd9	0.27999762
3	0x3f0e1e46	0.55514944

encoder2_3.bn1.weight f4 [4]
0	0x3f40bf75	0.7529214
1	0x3f5535ef	0.8328542
2	0x3f51ad83	0.8190538
3	0x3fa02291	1.2510549

encoder2_3.bn1.bias f4 [4]
0	0x3e9853fc	0.29751575
1	0x3f0a10ff	0.53932184
2	0xbaa60ce7	-0.001266864
3	0x3e8c76ef	0.2743449

encoder2_3.bn1.running_mean f4 [4]
0	0xbf020f07	-0.5080418
1	0xbed7b8be	-0.42133135
2	0x3edaec62	0.4275847
3	0x3f7bbf0e	0.983384

encoder2_3.bn1.running_var f4 [4]
0	0x3da83f91	0.08215249
1	0x3ca99b41	0.020703914
2	0x3c3560bd	0.0110704275
3	0x3cfbf28d	0.030755306

encoder2_3.bn2.weight f4 [4]
0	0x3f51a379	0.81890064
1	0x3f8ed875	1.1159807
2	0x3f5cc220	0.8623371
3	0x3f821e47	1.016549

encoder2_3.bn2.bias f4 [4]
0	0x3e69c3f6	0.2282866
1	0x3ebb4f43	0.3658391
2	0x3dce59bb	0.100757085
3	0x3e894c8f	0.26816222

encoder2_3.bn2.running_mean f4 [4]
0	0x3ecb559d	0.39713755
1	0x3f29cc08	0.6632695
2	0x3e809025	0.25109974
3	0x3f08f4f7	0.53498787

encoder2_3.bn2.running_var f4 [4]
0	0x3e7e750d	0.24849339
1	0x3f109dfe	0.56491077
2	0x3e69ba56	0.22824988
3	0x3f3fe9a4	0.7496588
